weight.npy (npy, 576 bytes, 1 tensors)

array f8 [4, 14]
0	0xc00a9b37491eccac	-3.3257890427135717
1	0xbff878bb801d7b44	-1.5294756893633386
2	0xc0127cd73ccab191	-4.621914815780102
3	0x40001a347514fec5	2.0127953669578766
4	0x3ff4bcee5f8232d0	1.2961257677845204
5	0x3fee56efd154b7e7	0.948112400865054
6	0x4011c347afa12bca	4.440703148090458
7	0x40076bd17792e705	2.927645620508772
8	0xbfe6f704a19c236f	-0.7176535755580583
9	0xbfee5e63cf0958f5	-0.9490222018892199
10	0xbff7f6be0fe0ed13	-1.4977398510225768
11	0xbff1912fb7904e00	-1.0979458971459053
12	0x4010e0695c2a0c8d	4.219151916567296
13	0xbffa83715229d542	-1.6570904931553092
14	0x3fedd1099ea0db32	0.9317672823152405
15	0x3fd7011871eb5b72	0.3594418632978239
16	0xc002e67ad55725ab	-2.362538973543186
17	0xc009dc50003243f7	-3.2325744643535432
18	0x400a5abd3c996416	3.294306252890702
19	0xc013747367e4a971	-4.863721488315023
20	0xbffc21642d96b7ce	-1.7581521778879394
21	0xc00190e153cbd033	-2.1957422777723195
22	0x3ff10e1c8b53e742	1.0659451906671653
23	0x3ff913ad6a8dbc3e	1.5673040544750303
24	0x4005ede9565a4702	2.741167711858794
25	0x3fd2c0d0f6b4f4a3	0.29301857082811916
26	0xc002c3e53882e767	-2.345652047629233
27	0xbff67eaf007c59a1	-1.4059286135649034
28	0x3fd2c39042347ca5	0.29318624940237675
29	0xbf9d721137792f58	-0.02875544453699716
30	0x3ff667bec51265a9	1.4003284166450192
31	0xc0068ef03b027948	-2.819794140828126
32	0xbff1b6daaf51ded4	-1.1071421478681502
33	0x3ff57fe8b23a9918	1.3437277757707928
34	0xbfd6c926cbac1f67	-0.3560273159969171
35	0x40088b76adbbf32d	3.0680974553091773
36	0xc00a7f19bda38269	-3.3120608153843034
37	0xc00d15a70393cdac	-3.6355724601250667
38	0xbfedf93c2adb7257	-0.9366741978697729
39	0x3f87f4de034c21ba	0.011697515941265436
40	0xbff8dd7737c8e141	-1.554068773182806
41	0x400b7dc4048eccac	3.436409030540366
42	0xbff6116ea05ad09f	-1.3792558921677835
43	0xbfd689e3aa4675bc	-0.35216609600487536
44	0x400d211704653371	3.641157183016212
45	0x4011578faf91befd	4.33550905539573
46	0xc01414e72b162d1c	-5.020413087109116
47	0x3ff7ce6c92a4d07c	1.4878965118669205
48	0xc00575321d8f3be4	-2.6822244939171345
49	0xc013b8d46c5b1285	-4.930497830446829
50	0x400245405dd981f4	2.2838141757968007
51	0x40018aac4446965e	2.1927113851586872
52	0xbffafe0ad27bc3c1	-1.6870220396051396
53	0xbfd7ac785b9da004	-0.3699017424282831
54	0xbfc89506537df13f	-0.19204787327533698
55	0xc0050bd5b16c53dd	-2.6307786809143026
